app/src/main/assets/automobile.tflite (tflite, 20832 bytes, 5 tensors)

sequential_3/dense_10/MatMul/ReadVariableOp/transpose f4 [64, 64]
0.4102077 0.43259096 0.23976602 0.071830794 0.14704561 -0.0955762 0.33136484 -0.10800844
-0.16327555 0.16986692 0.15607496 0.2747291 -0.087082654 -0.12773083 -0.15405372 0.18856099
0.045275316 0.21607223 -0.06888672 0.14362162 -0.011291489 0.23050772 0.2737208 -0.034097128
0.2520642 0.08194057 0.017872479 0.07737629 0.2925585 0.19945946 0.10465107 0.056258466
0.008698649 0.022188894 -0.005756636 0.2856773 0.23741397 0.050300833 0.0015108638 0.23061769
0.35267177 0.18078741 0.15336917 -0.085450254 0.2217885 -0.20559552 -0.2860939 0.17108047
0.17092568 0.18147336 0.04361204 -0.07897067 0.018548816 -0.02704182 0.06526957 0.0373934
-0.024047414 0.034826208 0.11620558 0.11348156 -0.06452088 0.2329676 0.10287552 0.25363824
-0.026873697 0.3909313 -0.035937924 0.35065895 -0.5839324 0.09925431 0.1329057 -1.1940776
-2.0806909 -1.070288 -0.442015 -2.4615126 0.4248269 -0.4261258 0.3202441 0.16072795
1.3245374 -0.43925235 -0.055320323 -0.33763626 -0.29187915 -0.2045184 -0.21299018 0.55356926
0.47735465 0.43028098 0.07064759 0.20054382 0.24571307 0.015935518 0.027155744 -0.09094524
-0.0027877172 0.7715567 0.40327337 -0.12990241 -0.542382 -0.48489144 0.04723806 0.25214845
-0.4260121 1.263276 -0.01755671 0.04563809 0.50793266 0.14652032 0.124685965 0.7480384
-0.28974178 -0.268159 0.18374342 -0.08746747 -0.66562444 -0.16366148 -0.04072241 -1.3101568
0.23920068 -0.06427204 0.5885676 -0.3214067 -1.6797718 -0.35068703 -0.35823494 -0.08846654
0.31010875 0.15066333 -0.013467108 -0.00069284183 0.13608688 0.14227615 0.20699996 0.20275629
-0.15915605 0.08624124 0.13592269 0.13031074 0.0065248534 -0.07977774 -0.30389863 0.15682575
0.045621082 0.3722247 0.21603076 0.041911125 0.22220035 -0.01977527 -0.035969708 0.009329888
0.4075057 0.2899301 0.19397713 0.28993404 0.18216778 0.50050586 0.041094273 0.017631251
0.0951908 0.024076946 0.17111348 0.29702306 0.32905233 0.15960743 0.1449913 0.35212302
0.3441915 0.107725345 0.31051308 0.1509076 0.19546941 -0.04646756 -0.4486845 0.16279832
-0.056790456 0.07640983 0.21172787 -0.058311477 -0.10645999 0.08498444 0.38311994 0.39025283
0.14057802 -0.058124866 0.10698175 0.0046199285 0.051259942 -0.008280477 0.20847198 0.02911237
0.16983913 0.15151714 -0.23226641 0.1148024 -0.002677853 0.18353586 -0.62653023 -0.16651453
0.11627951 -0.05962368 -0.42230895 -0.13320613 0.06756236 0.16716117 -0.10905013 0.018809676
-0.18896362 -0.1231708 -0.35383576 -0.28274462 -0.60222596 -0.01954285 -0.23881811 -0.0689504
-0.09191833 0.16618536 -0.38145548 0.07163558 -0.11318662 -0.02044661 -0.079717495 -0.25487253
-0.11450883 0.05371465 -0.055199288 0.120632716 -0.026884556 0.15603396 -0.18950446 0.09395992
-0.11406992 -0.05556113 0.07319134 -0.15398681 -0.054885577 -0.055027608 -0.096523315 0.17230812
-0.33934277 -0.014852128 0.040155884 -0.23341578 -0.13761923 -0.15431623 -0.29586637 0.060815282
0.061478868 0.030548481 -0.0103444075 0.066893294 -0.028036624 0.025986096 0.027051957 -0.34526667
00000000: be06 d23e 907c dd3e 3985 753e 061c 933d
00000010: 2093 163e 74bd c3bd a7a8 a93e 8733 ddbd
00000020: b531 27be 98f1 2d3e 1dd2 1f3e 4ba9 8c3e
00000030: 6458 b2bd dfcb 02be 42c0 1dbe 2216 413e
00000040: 9c72 393d 0a42 5d3e 7b14 8dbd 8c11 133e
00000050: f0ff 38bc 370a 6c3e 2225 8c3e 6ea9 0bbd
00000060: 8f0e 813e 75d0 a73d 4e69 923c 7677 9e3d
00000070: 3aca 953e 1a3f 4c3e 4d53 d63d 476f 663d
00000080: c784 0e3c 7cc5 b53c 2aa2 bcbb 4c44 923e
00000090: a61c 733e 3f08 4e3d 2d08 c63a 0b27 6c3e
000000a0: 6591 b43e 5620 393e cf0c 1d3e 8b00 afbd
000000b0: 861c 633e a287 52be e67a 92be b82f 2f3e
000000c0: 2407 2f3e 27d4 393e 8aa2 323d 60bb a1bd
000000d0: b0f3 973c cf86 ddbc 0dac 853d d229 193d
000000e0: 15ff c4bc eda5 0e3d 31fd ed3d 0569 e83d
000000f0: 8623 84bd 0f8f 6e3e 67b0 d23d dfdc 813e
00000100: 3a26 dcbc 2628 c83e a533 13bd 9289 b33e
00000110: 987c 15bf d845 cb3d 6f18 083e 89d7 98bf
00000120: 0a2a 05c0 32ff 88bf ca4f e2be 6c89 1dc0
00000130: e982 d93e 292d dabe 09f7 a33e de95 243e
00000140: 718a a93f afe5 e0be 9097 62bd a9de acbe
00000150: 2f71 95be 456d 51be 191a 5abe b7b6 0d3f
00000160: d467 f43e ca4d dc3e afaf 903d 5c5b 4d3e
00000170: 359c 7b3e 348b 823c b975 de3c 7f41 babd
00000180: 22b2 36bb bd84 453f d979 ce3e 2305 05be
00000190: 8cd9 0abf b143 f8be b27c 413d 9a19 813e
000001a0: 421e dabe 07b3 a13f 17d3 8fbc 02ef 3a3d
000001b0: e007 023f 6c09 163e 5b5b ff3d 727f 3f3f
000001c0: 0959 94be 234c 89be 3c27 3c3e 2522 b3bd
000001d0: 5d66 2abf e096 27be 8bcc 26bd 38b3 a7bf
000001e0: 06f1 743e 0fa1 83bd 5eac 163f 6b8f a4be
000001f0: c302 d7bf 408d b3be 926a b7be f22d b5bd
00000200: 93c6 9e3e 7d47 1a3e 25a5 5cbc d49f 35ba
00000210: 5c5a 0b3e d7b0 113e ccf7 533e 589f 4f3e
00000220: cef9 22be 3f9f b03d 512f 0b3e 2e70 053e
00000230: 70ce d53b 8362 a3bd 9a98 9bbe ee96 203e
00000240: 2cdd 3a3d 3c94 be3e 2b37 5d3e 00ab 2b3d
00000250: 7d88 633e bfff a1bc f954 13bd 63dc 183c
00000260: 96a4 d03e b871 943e f1a1 463e 3c72 943e
00000270: 318a 3a3e 2721 003f 7852 283d 6a6f 903c
00000280: 65f3 c23d 043d c53c 5f38 2f3e 6813 983e
00000290: 8c79 a83e 2170 233e 9978 143e 7849 b43e
000002a0: de39 b03e 1b9f dc3d 92fb 9e3e 8687 1a3e
000002b0: 2229 483e c554 3ebd fab9 e5be 9ab4 263e
000002c0: 1c9d 68bd c27c 9c3d 31cf 583e 04d8 6ebd
000002d0: b207 dabd 520c ae3d 4c28 c43e 38cf c73e
000002e0: aff3 0f3e 5714 6ebd 3f19 db3d c562 973b
000002f0: f2f5 513d d6aa 07bc ae79 553e 117d ee3c
00000300: 4fea 2d3e 4f27 1b3e 3fd7 6dbe 851d eb3d
00000310: eb7e 2fbb d3f0 3b3e 4964 20bf c982 2abe
00000320: f423 ee3d f637 74bd e138 d8be 3067 08be
00000330: 225e 8a3d 4c2c 2b3e ad55 dfbd c016 9a3c
00000340: ae7f 41be f940 fcbd f629 b5be e7c3 90be
00000350: 7b2b 1abf 5418 a0bc bc8c 74be de35 8dbd
00000360: ad3f bcbd 7f2c 2a3e 224e c3be adb5 923d
00000370: 63ce e7bd a67f a7bc ed42 a3bd a77e 82be
00000380: 9b83 eabd e503 5c3d a618 62bd 490e f73d
00000390: 003d dcbc 5ec7 1f3e 750d 42be 0f6e c03d
000003a0: 7d9d e9bd 1194 63bd 57e5 953d b8ae 1dbe
000003b0: b3cf 60bd a164 61bd 04ae c5bd 8a71 303e
000003c0: 56be adbe 5756 73bc 7f7a 243d 8c04 6fbe
000003d0: 0eec 0cbe 1305 1ebe cc7b 97be 7219 793d
000003e0: 44d1 7b3d cf40 fa3c 977b 29bc 5aff 883d
000003f0: 10ad e5bc cbe0 d43c 119c dd3c cbc6 b0be

sequential_3/dense_10/MatMul_bias f4 [64]
0.10639284 0.11103781 0.11050968 -0.0529942 0.09534639 -0.03481036 -0.007187872 0.1004721
0.09655519 0.10169419 -0.08004862 0.09993932 -0.041169822 -0.027334623 0.031980954 0.091766946
0.10533376 0.098887764 0.10437565 0.15722509 0.02487603 0.1040695 0.04879818 -0.06510809
-0.00829523 -0.06004449 -0.018869273 -0.028327426 -0.02683187 0.09785784 -0.03824397 -0.022030542
0.09907827 -0.09503912 0.098397925 0.0867347 -0.104833536 -0.044509478 0.09610697 -0.046438765
0.09962349 -0.037617326 0.100039326 0.10409932 0.09742813 0.023723489 0.09747474 0.09760114
0.10670132 0.14291625 0.044737954 -0.005471261 0.037524816 0.043214563 0.10550543 0.09998986
-0.011955894 0.099289715 0.0007742581 -0.02480279 0.06653045 0.090262905 -0.03310753 0.0
00000000: 7de4 d93d cb67 e33d e652 e23d 7210 59bd
00000010: f844 c33d 4f95 0ebd 3e88 ebbb 51c4 cd3d
00000020: babe c53d 0b45 d03d 88f0 a3bd fcac cc3d
00000030: b0a1 28bd dcec dfbc 76fe 023d 4ff0 bb3d
00000040: 3ab9 d73d ab85 ca3d e7c2 d53d 9dff 203e
00000050: d1c8 cb3c 6422 d53d 9ae0 473d 6457 85bd
00000060: b7e8 07bc 36f1 75bd bc93 9abc eb0e e8bc
00000070: 83ce dbbc b169 c83d b6a5 1cbd 6579 b4bc
00000080: 8ce9 ca3d dfa3 c2bd da84 c93d f6a1 b13d
00000090: f7b2 d6bd 924f 36bd bbd3 c43d 9336 3ebd
000000a0: 6607 cc3d a014 1abd 6be1 cc3d 0632 d53d
000000b0: 6688 c73d c357 c23c d6a0 c73d 1be3 c73d
000000c0: 3986 da3d a358 123e 253f 373d 4448 b3bb
000000d0: 9fb3 193d c101 313d 3b13 d83d 7cc7 cc3d
000000e0: a7e2 43bc 6858 cb3d 95f7 4a3a 382f cbbc
000000f0: 1e41 883d c2db b83d c39b 07bd 0000 0000

sequential_3/dense_11/MatMul/ReadVariableOp/transpose f4 [1, 64]
0.36139122 -0.88743603 0.31274664 -0.7763797 0.19538575 -0.15821517 -0.1264159 0.30311167
0.2587027 0.42734504 -1.3965534 0.45753145 -0.2505474 -0.19686948 -0.9393564 -1.2393984
0.41251054 0.45438194 0.32416517 -1.9852442 0.13122429 0.2405213 -1.0809484 -0.11622599
-2.2890818 -1.124326 -0.93646806 -0.21191427 -0.633688 0.18625578 -0.21635872 -0.24859141
0.40785375 -1.2410268 0.23033859 0.16466233 -2.5333622 -1.8160784 0.2582128 -0.11876427
0.2742462 -0.62152404 0.19633012 0.43716118 0.28817645 -0.791847 0.38494194 0.2623255
0.46644026 -2.9225688 -1.5587641 -0.004449049 0.20788106 0.53004384 0.2580543 0.29444462
-0.28780973 0.25454363 -0.6837106 -0.17455152 -0.63835216 0.18122004 -0.1473424 -0.20286459
00000000: 4508 b93e 022f 63bf 5420 a03e d2c0 46bf
00000010: 3413 483e 2803 22be 2b73 01be 7431 9b3e
00000020: ae74 843e f8cc da3e 43c2 b2bf 9041 ea3e
00000030: c047 80be 2798 49be a979 70bf 9ba4 9ebf
00000040: 9534 d33e c0a4 e83e faf8 a53e 7b1c febf
00000050: a95f 063e 374b 763e 845c 8abf e407 eebd
00000060: 5180 12c0 eae9 8fbf 5fbc 6fbf 0e00 59be
00000070: 6039 22bf d6b9 3e3e 248d 5dbe bf8e 7ebe
00000080: 35d2 d03e f7d9 9ebf e1dd 6b3e 3e9d 283e
00000090: 9b22 22c0 4275 e8bf 7834 843e ae3a f3bd
000000a0: ff69 8c3e 331c 1fbf c30a 493e 97d3 df3e
000000b0: dd8b 933e 7cb6 4abf 1c17 c53e 874f 863e
000000c0: 42d1 ee3e 5e0b 3bc0 9585 c7bf 54c9 91bb
000000d0: c6de 543e f4b0 073f b11f 843e 72c1 963e
000000e0: cc5b 93be 8b53 823e a807 2fbf a2bd 32be
000000f0: 0c6b 23bf bf91 393e ede0 16be bcbb 4fbe

sequential_3/dense_9/MatMul/ReadVariableOp/transpose f4 [64, 9]
-0.01098378 -0.101437464 -0.39868185 -0.15665361 0.08722835 -0.4042006 0.4715144 -0.57796544
0.059484106 -0.0066438173 -0.3164624 0.38919985 0.24374254 -0.20497888 -0.46502787 0.26879418
-0.43093857 -0.0042699496 -0.28756198 0.30787405 -0.7040242 -0.100973256 0.61173916 0.2796402
-0.04497027 -0.113973595 -0.199408 0.29674438 -0.35781825 -0.2665487 -0.3182297 -0.27061793
-0.15982428 -0.3130205 0.20525935 -0.22366004 -0.30516872 0.22687128 -0.3381484 0.07868885
-0.1649416 0.49942672 0.22370303 -0.01933854 -0.067433566 -0.2075857 0.0532206 -0.12913889
0.37352645 -0.42992923 0.20917793 0.40336618 0.08975095 -0.21751416 -0.18119062 0.5692282
0.41487816 -0.2047423 0.022206303 0.28710914 0.024954597 -0.3705681 -0.19964327 -0.28602853
0.027868036 0.07046251 0.070616506 -0.08426857 -0.38599342 -0.3446771 0.38961503 0.24798667
-0.2160948 0.07873047 0.10238269 -0.12167807 -0.012076581 -0.27987075 -0.35524344 0.20771997
0.13213067 0.5459528 -0.62543595 0.07953848 -0.35145888 -0.032690153 0.07338286 -0.27169436
0.2354533 0.02480226 0.31442583 -0.38124672 -0.0035072544 0.11206266 0.16174814 0.27205482
0.16721724 0.14415407 -0.24819037 -0.10203887 -0.45787796 -0.28892758 0.22681746 0.13381101
0.1046259 -0.30562273 0.13456707 0.11107067 -0.44074747 -0.33523512 -0.12788422 0.2844012
-0.18729073 -0.1589411 -0.25663978 -0.060968254 0.05839217 0.44844428 0.091716096 0.09968075
-0.36771008 0.18495613 0.07453718 -0.36722383 0.3885236 0.14315644 0.36407346 0.07263004
0.33347487 0.12304734 -0.72091985 -0.25673047 -0.033548504 -0.22968346 0.29655296 0.3021619
-0.5391348 0.028948763 -0.23739138 0.017495159 -0.07813778 -0.19753131 -0.016393002 -0.07329353
0.293291 -0.33646858 0.285495 0.02145107 0.1635892 0.23440799 -0.4938062 -0.12107677
0.07584498 0.05850651 0.5666962 -0.1964674 -0.18231525 0.18599953 0.23907126 -0.36232504
0.22171983 0.27605775 -0.11329514 0.32033318 0.096141584 -0.6510461 0.48242295 0.17944299
-0.014124386 0.060523126 -0.13857773 0.06447022 0.123285696 -0.31902593 0.048580166 0.04579694
0.5891936 -0.011664236 -0.22222558 -0.29548046 0.38254383 0.29969972 -0.27716175 -0.15306944
0.36988696 0.20527405 0.3930434 0.023821814 -0.31773037 -0.3813056 -0.53578854 -0.16486438
0.269995 0.16718481 -0.05054942 -0.15801282 0.1462856 -0.085330434 -0.024162883 0.1771066
0.0021180923 -0.46191597 -0.05676448 0.3290782 0.048328806 0.30715567 0.23512359 -0.30022457
-0.017910546 -0.0575231 -0.47491115 -0.020793976 0.13878599 0.41702968 0.122901045 -0.33008868
-0.21263935 -0.11196549 0.50604117 -0.114192784 0.06556712 -0.57900465 0.32999885 -0.084683314
-0.31071994 0.23476727 0.21874407 -0.09714352 -0.49711818 -0.5166175 0.030812962 0.15707278
-0.46983695 -0.2277491 -0.040085755 -0.039061103 -0.18838629 0.08664937 0.6554804 -0.033689525
0.17756224 0.0028325608 0.33170444 0.08454998 -0.49932078 -0.24043672 -0.18021649 -0.060982138
-0.3463889 0.019790165 0.17769171 -0.14091623 -0.15227225 0.15328617 -0.33050096 -0.12685438
00000000: 50f5 33bc 72be cfbd 0720 ccbe ce69 20be
00000010: c7a4 b23d 62f3 cebe 566a f13e 8bf5 13bf
00000020: 9ba5 733d 61b4 d9bb 5c07 a2be 3445 c73e
00000030: a597 793e fce5 51be 2218 eebe 649f 893e
00000040: fba3 dcbe efea 8bbb 533b 93be aba1 9d3e
00000050: ee3a 34bf 11cb cebd f09a 1c3f 002d 8f3e
00000060: bf32 38bd fd6a e9bd 9c31 4cbe e1ee 973e
00000070: f433 b7be 1279 88be 01ef a2be 6f8e 8abe
00000080: faa8 23be 3944 a0be 822f 523e 2307 65be
00000090: 133f 9cbe f250 683e c921 adbe 9f27 a13d
000000a0: 73e6 28be dcb4 ff3e 6812 653e dc6b 9ebc
000000b0: 9c1a 8abd 5991 54be d8fd 593d fc3c 04be
000000c0: dc3e bf3e af1f dcbe bd32 563e 0386 ce3e
000000d0: 59cf b73d 08bc 5ebe 098a 39be f0b8 113f
000000e0: e96a d43e f7a7 51be fee9 b53c f8ff 923e
000000f0: 956d cc3c 1abb bdbe 496f 4cbe 5572 92be
00000100: 824b e43c a64e 903d 639f 903d 0095 acbd
00000110: eea0 c5be 8479 b0be 9f7b c73e 38f0 7d3e
00000120: f547 5dbe 713d a13d 04ae d13d 5a32 f9bd
00000130: dadc 45bc 384b 8fbe 78e2 b5be 8bb4 543e
00000140: 434d 073e 90c3 0b3f 921c 20bf 12e5 a23d
00000150: 6bf2 b3be 1ce6 05bd c149 963d 861b 8bbe
00000160: ab1a 713e 1c2e cb3c 6cfc a03e c532 c3be
00000170: f7d9 65bb 1c81 e53d 4ea1 253e c54a 8b3e
00000180: ff3a 2b3e 209d 133e 9e25 7ebe c1f9 d0bd
00000190: fb6e eabe 51ee 93be d642 683e c105 093e
000001a0: 1b46 d63d 957a 9cbe f3cb 093e 0579 e33d
000001b0: a7a9 e1be f0a3 abbe 15f4 02be 099d 913e
000001c0: 24c9 3fbe 75c1 22be 4a66 83be d9b9 79bd
000001d0: a12c 6f3d 7d9a e53e a6d5 bb3d 6c25 cc3d
000001e0: 7f44 bcbe 2465 3d3e f3a6 983d c304 bcbe
000001f0: 91ec c63e 9a97 123e d667 ba3e 0fbf 943d
00000200: 38bd aa3e 3e00 fc3d 348e 38bf 2d72 83be
00000210: 286a 09bd 2432 6bbe cad5 973e f7b4 9a3e
00000220: bd04 0abf f525 ed3c ba16 73be 0252 8f3c
00000230: b306 a0bd a645 4abe 9e4a 86bc eb1a 96bd
00000240: 3d2a 963e 9c45 acbe 672c 923e 28ba af3c
00000250: ed83 273e a608 703e 2bd4 fcbe 19f7 f7bd
00000260: 9d54 9b3d 86a4 6f3d 0113 113f c02e 49be
00000270: d9b0 3abe a976 3e3e 19cf 743e ab82 b9be
00000280: 860a 633e 7157 8d3e 4807 e8bd b602 a43e
00000290: e1e5 c43d f5aa 26bf 2400 f73e e7bf 373e
000002a0: f869 67bc 19e7 773d 52e7 0dbe f608 843d
000002b0: 367d fc3d 5e57 a3be fffb 463d 9295 3b3d
000002c0: 64d5 163f 5a1b 3fbc 1a8f 63be 3749 97be
000002d0: c9dc c33e 3e72 993e 25e8 8dbe 3cbe 1cbe
000002e0: d361 bd3e 5c33 523e fc3c c93e f725 c33c
000002f0: 8ead a2be 7d3a c3be 7029 09bf 35d2 28be
00000300: c93c 8a3e 7f32 2b3e e90c 4fbd 1dce 21be
00000310: e4cb 153e b9c1 aebd 3df1 c5bc 6f5b 353e
00000320: b1cf 0a3b 4080 ecbe df81 68bd f07c a83e
00000330: 6df4 453d 8243 9d3e 3dc4 703e 09b7 99be
00000340: 23b9 92bc 589d 6bbd 8e27 f3be 2158 aabc
00000350: ea1d 0e3e ea84 d53e 8bb3 fb3d 6201 a9be
00000360: 21be 59be 2a4e e5bd ea8b 013f e8dd e9bd
00000370: 0e48 863d a639 14bf 9cf5 a83e 726e adbd
00000380: af16 9fbe d566 703e 72fe 5f3e 2ff3 c6bd
00000390: 4686 febe 0b41 04bf 776b fc3c b0d7 203e
000003a0: 788e f0be 0f37 69be f630 24bd 89fe 1fbd
000003b0: 56e8 40be 3a75 b13d 90cd 273f 07fe 09bd
000003c0: e0d2 353e 7ca2 393b 2ad5 a93e 8a28 ad3d
000003d0: f9a6 ffbe 0b35 76be ac8a 38be 68c8 79bd
000003e0: e359 b1be fc1e a23c d1f4 353e 584c 10be
000003f0: 42ed 1bbe 0df7 1c3e 6c37 a9be 1de6 01be

sequential_3/dense_9/MatMul_bias f4 [64]
0.1425496 0.403572 0.33311942 0.15577638 0.12384515 0.19760774 0.31359106 0.06162973
-0.02403133 0.1707543 0.12936465 0.03779138 0.1381418 0.061490435 -0.03662797 0.18942623
-0.0037472271 -0.03136654 0.087533854 0.21936959 0.19814515 0.09739363 -0.0041378583 -0.06110722
0.3055544 0.104991145 0.25158793 0.12875497 0.21523719 0.3670276 0.011867757 0.17119387
0.214598 0.07227033 0.21547024 0.16634493 0.2144124 0.022956192 -0.01737305 0.18407351
0.19217719 0.10714464 0.06560582 0.12569743 -0.03219587 0.21021773 0.5805691 0.22882177
0.1920742 -0.015517035 0.3838713 0.16027223 -0.16760804 0.19603704 0.15437399 0.19112341
0.15944782 0.25068283 0.3666207 0.17530864 -0.022416491 0.10824789 0.1359918 0.13190277
00000000: 86f8 113e fda0 ce3e a18e aa3e d883 1f3e
00000010: 87a2 fd3d af59 4a3e 028f a03e 756f 7c3d
00000020: 5add c4bc 37da 2e3e 2b78 043e 22cb 1a3d
00000030: 0b75 0d3e 65dd 7b3d 3607 16bd f3f8 413e
00000040: 0a94 75bb 337a 00bd f344 b33d 6ca2 603e
00000050: 90e6 4a3e 5076 c73d df96 87bb 904b 7abd
00000060: a071 9c3e 9905 d73d 22d0 803e 58d8 033e
00000070: 2367 5c3e 0beb bb3e fb70 423c 724d 2f3e
00000080: 94bf 5b3e 7702 943d 3ba4 5c3e 5356 2a3e
00000090: ed8e 5b3e a00e bc3c ed51 8ebc c47d 3c3e
000000a0: 19ca 443e a66e db3d 585c 863d d4b6 003e
000000b0: d1df 03bd 5143 573e 2da0 143f 4150 6a3e
000000c0: 19af 443e 293b 7ebc c78a c43e 671e 243e
000000d0: 71a1 2bbe efbd 483e 3714 1e3e dbb5 433e
000000e0: 4a46 233e 8059 803e b5b5 bb3e 1c84 333e
000000f0: caa2 b7bc 12b1 dd3d 6f41 0b3e 8511 073e
